…
OMP: Info #250: KMP_AFFINITY: pid 25594 tid 25792 thread 52 bound to OS proc set 6
OMP: Info #250: KMP_AFFINITY: pid 25594 tid 25793 thread 53 bound to OS proc set 13
OMP: Info #250: KMP_AFFINITY: pid 25594 tid 25794 thread 54 bound to OS proc set 20
OMP: Info #250: KMP_AFFINITY: pid 25594 tid 25795 thread 55 bound to OS proc set 27
OMP: Info #250: KMP_AFFINITY: pid 25594 tid 25796 thread 56 bound to OS proc set 0
_________________________________________________________________
Layer (type)                 Output Shape              Param #   
=================================================================
conv3d_1 (Conv3D)            (None, 5, 64, 64, 32)     896       
_________________________________________________________________
conv3d_2 (Conv3D)            (None, 5, 64, 64, 32)     27680     
_________________________________________________________________
conv3d_3 (Conv3D)            (None, 5, 64, 64, 32)     27680     
_________________________________________________________________
conv3d_4 (Conv3D)            (None, 3, 62, 62, 32)     27680     
_________________________________________________________________
conv3d_5 (Conv3D)            (None, 1, 60, 60, 32)     27680     
_________________________________________________________________
reshape_1 (Reshape)          (None, 60, 60, 32)        0         
_________________________________________________________________
conv2d_1 (Conv2D)            (None, 60, 60, 1)         289       
=================================================================
Total params: 111,905
Trainable params: 111,905
Non-trainable params: 0
_________________________________________________________________
None
shape of train_x (79, 5, 64, 64, 1) shape of train_y (79, 60, 60, 1)
Train on 63 samples, validate on 16 samples
Epoch 1/1000
 - 5s - loss: 2315.1776 - ssim_for2d: 0.2925 - psnr_for2d: -3.3413e+01 - val_loss: 1586.1629 - val_ssim_for2d: 0.4343 - val_psnr_for2d: -3.2003e+01
…
