…
packed 287 packages already
packed 288 packages already
packed 289 packages already
packed 290 packages already
packed 291 packages already
packed 292 packages already
packed 293 packages already
packed 294 packages already
packed 295 packages already
packed 296 packages already
packed 297 packages already
finish picking up prediction set!
prediction_set shape:  (296, 5, 352, 288, 1)
_________________________________________________________________
Layer (type)                 Output Shape              Param #   
=================================================================
conv3d_1 (Conv3D)            (None, 5, 352, 288, 32)   896       
_________________________________________________________________
conv3d_2 (Conv3D)            (None, 5, 352, 288, 32)   27680     
_________________________________________________________________
conv3d_3 (Conv3D)            (None, 5, 352, 288, 32)   27680     
_________________________________________________________________
conv3d_4 (Conv3D)            (None, 5, 352, 288, 32)   27680     
_________________________________________________________________
conv3d_5 (Conv3D)            (None, 5, 352, 288, 32)   27680     
_________________________________________________________________
conv3d_6 (Conv3D)            (None, 3, 350, 286, 32)   27680     
_________________________________________________________________
conv3d_7 (Conv3D)            (None, 1, 348, 284, 32)   27680     
_________________________________________________________________
reshape_1 (Reshape)          (None, 348, 284, 32)      0         
_________________________________________________________________
conv2d_4 (Conv2D)            (None, 348, 284, 1)       289       
=================================================================
Total params: 167,265
Trainable params: 167,265
Non-trainable params: 0
_________________________________________________________________
None
Train on 239 samples, validate on 27 samples
Epoch 1/200
 - 345s - loss: 36429.1769 - ssim_for2d: 0.0752 - psnr_for2d: 5.4658 - val_loss: 21452.7012 - val_ssim_for2d: 0.0087 - val_psnr_for2d: 4.8160
…
